render_ocrb.onnx (onnx, 460115 bytes, 1 tensors)

ocrb u1 [10, 256, 128]
0	0xff	255
1	0xff	255
2	0xff	255
3	0xff	255
4	0xff	255
5	0xff	255
6	0xff	255
7	0xff	255
8	0xff	255
9	0xff	255
10	0xff	255
11	0xff	255
12	0xff	255
13	0xff	255
14	0xff	255
15	0xff	255
16	0xff	255
17	0xff	255
18	0xff	255
19	0xff	255
20	0xff	255
21	0xff	255
22	0xff	255
23	0xff	255
24	0xff	255
25	0xff	255
26	0xff	255
27	0xff	255
28	0xff	255
29	0xff	255
30	0xff	255
31	0xff	255
32	0xff	255
33	0xff	255
34	0xff	255
35	0xff	255
36	0xff	255
37	0xff	255
38	0xff	255
39	0xff	255
40	0xff	255
41	0xff	255
42	0xff	255
43	0xff	255
44	0xff	255
45	0xff	255
46	0xff	255
47	0xff	255
48	0xff	255
49	0xff	255
50	0xff	255
51	0xff	255
52	0xff	255
53	0xff	255
54	0xff	255
55	0xff	255
56	0xff	255
57	0xff	255
58	0xff	255
59	0xff	255
60	0xff	255
61	0xff	255
62	0xff	255
63	0xff	255
64	0xff	255
65	0xff	255
66	0xff	255
67	0xff	255
68	0xff	255
69	0xff	255
70	0xff	255
71	0xff	255
72	0xff	255
73	0xff	255
74	0xff	255
75	0xff	255
76	0xff	255
77	0xff	255
78	0xff	255
79	0xff	255
80	0xff	255
81	0xff	255
82	0xff	255
83	0xff	255
84	0xff	255
85	0xff	255
86	0xff	255
87	0xff	255
88	0xff	255
89	0xff	255
90	0xff	255
91	0xff	255
92	0xff	255
93	0xff	255
94	0xff	255
95	0xff	255
96	0xff	255
97	0xff	255
98	0xff	255
99	0xff	255
100	0xff	255
101	0xff	255
102	0xff	255
103	0xff	255
104	0xff	255
105	0xff	255
106	0xff	255
107	0xff	255
108	0xff	255
109	0xff	255
110	0xff	255
111	0xff	255
112	0xff	255
113	0xff	255
114	0xff	255
115	0xff	255
116	0xff	255
117	0xff	255
118	0xff	255
119	0xff	255
120	0xff	255
121	0xff	255
122	0xff	255
123	0xff	255
124	0xff	255
125	0xff	255
126	0xff	255
127	0xff	255
128	0xff	255
129	0xff	255
130	0xff	255
131	0xff	255
132	0xff	255
133	0xff	255
134	0xff	255
135	0xff	255
136	0xff	255
137	0xff	255
138	0xff	255
139	0xff	255
140	0xff	255
141	0xff	255
142	0xff	255
143	0xff	255
144	0xff	255
145	0xff	255
146	0xff	255
147	0xff	255
148	0xff	255
149	0xff	255
150	0xff	255
151	0xff	255
152	0xff	255
153	0xff	255
154	0xff	255
155	0xff	255
156	0xff	255
157	0xff	255
158	0xff	255
159	0xff	255
160	0xff	255
161	0xff	255
162	0xff	255
163	0xff	255
164	0xff	255
165	0xff	255
166	0xff	255
167	0xff	255
168	0xff	255
169	0xff	255
170	0xff	255
171	0xff	255
172	0xff	255
173	0xff	255
174	0xff	255
175	0xff	255
176	0xff	255
177	0xff	255
178	0xff	255
179	0xff	255
180	0xff	255
181	0xff	255
182	0xff	255
183	0xff	255
184	0xff	255
185	0xff	255
186	0xff	255
187	0xff	255
188	0xff	255
189	0xff	255
190	0xff	255
191	0xff	255
192	0xff	255
193	0xff	255
194	0xff	255
195	0xff	255
196	0xff	255
197	0xff	255
198	0xff	255
199	0xff	255
200	0xff	255
201	0xff	255
202	0xff	255
203	0xff	255
204	0xff	255
205	0xff	255
206	0xff	255
207	0xff	255
208	0xff	255
209	0xff	255
210	0xff	255
211	0xff	255
212	0xff	255
213	0xff	255
214	0xff	255
215	0xff	255
216	0xff	255
217	0xff	255
218	0xff	255
219	0xff	255
220	0xff	255
221	0xff	255
222	0xff	255
223	0xff	255
224	0xff	255
225	0xff	255
226	0xff	255
227	0xff	255
228	0xff	255
229	0xff	255
230	0xff	255
231	0xff	255
232	0xff	255
233	0xff	255
234	0xff	255
235	0xff	255
236	0xff	255
237	0xff	255
238	0xff	255
239	0xff	255
240	0xff	255
241	0xff	255
242	0xff	255
243	0xff	255
244	0xff	255
245	0xff	255
246	0xff	255
247	0xff	255
248	0xff	255
249	0xff	255
250	0xff	255
251	0xff	255
252	0xff	255
253	0xff	255
254	0xff	255
255	0xff	255
